pipeline/models/autoencoder.pth (torch, 10887 bytes, 12 tensors)

encoder.0.weight f4 [32, 2]
0.36985695 -0.6499751 -0.42529988 -0.41993484 0.11591116 -0.29152158 -0.70254856 -0.32373625
0.2430156 -0.1464313 0.122791976 -0.66097605 -0.5792835 -0.005882267 0.3143076 -0.61297286
0.07199415 -0.5290799 0.5047849 -0.6736869 0.25089008 -0.51200116 -0.15658548 0.4820867
0.19613205 0.60789764 0.6568204 0.39844805 -0.5684341 -0.36237785 -0.0350097 -0.47124743
0.36992693 0.7053877 0.35673597 -0.42766616 0.46442774 -0.116203666 0.6527342 -0.2525183
0.63736653 -0.66313976 -0.079444446 0.13449691 0.6786367 -0.0077034323 0.61203974 -0.52793294
0.22261189 -0.032378137 0.2763181 -0.561396 -0.058584288 -0.4604587 -0.041481685 0.48544925
-0.581857 -0.34915942 0.52685297 -0.19740868 0.6116692 0.5382947 0.51415455 -0.65434146
00000000: e45d bd3e c564 26bf e8c0 d9be b301 d7be
00000010: d562 ed3d 5142 95be 39da 33bf c2c0 a5be
00000020: 15d9 783e 16f2 15be 5c7a fb3d ba35 29bf
00000030: ec4b 14bf 08c0 c0bb edec a03e caeb 1cbf
00000040: ab71 933d c871 07bf 9539 013f bf76 2cbf
00000050: aa74 803e 8212 03bf f257 20be 11d4 f63e
00000060: d7d6 483e 2e9f 1b3f 6225 283f 6201 cc3e
00000070: e684 11bf 9789 b9be 5566 0fbd 5847 f1be
00000080: 1067 bd3e 4a94 343f 19a6 b63e 0ff7 dabe
00000090: 79c9 ed3e 30fc edbd 9719 273f 144a 81be
000000a0: 742a 233f 87c3 29bf c5b3 a2bd 8fb9 093e
000000b0: 23bb 2d3f 136d fcbb a3ae 1c3f 9d26 07bf
000000c0: 5ff4 633e f09e 04bd 9179 8d3e a6b7 0fbf
000000d0: 14f6 6fbd 3ec1 ebbe b3e8 29bd ce8c f83e
000000e0: 95f4 14bf 06c5 b2be d6df 063f 8025 4abe
000000f0: 5a96 1c3f aecd 093f a29f 033f ec82 27bf

encoder.0.bias f4 [32]
-0.68076915 -0.23358676 -0.12928976 -0.22087772 0.28601667 -0.5361785 0.47393066 -0.553597
-0.3784126 -0.6807707 0.19960776 -0.28501147 0.14562203 0.13053274 -0.015252607 -0.4860495
-0.0349834 0.21069302 0.13394102 -0.16029492 -0.1800177 -0.651274 -0.5919233 -0.21609566
0.3736944 0.06748222 0.14923443 0.47208688 -0.28889674 -0.49815744 0.7034864 0.5875934
00000000: e346 2ebf 5e31 6fbe 8964 04be c52d 62be
00000010: c770 923e ff42 09bf 0aa7 f23e 88b8 0dbf
00000020: 4cbf c1be fd46 2ebf fa65 4c3e 06ed 91be
00000030: f11d 153e 60aa 053e 12e6 79bc 7bdb f8be
00000040: c14a 0fbd e9bf 573e d627 093e 5a24 24be
00000050: 8f56 38be e5b9 26bf 4988 17bf 2e48 5dbe
00000060: df54 bf3e 1e34 8a3d e9d0 183e 5fb5 f13e
00000070: 46ea 93be 7e0e ffbe af17 343f 856c 163f

encoder.2.weight f4 [16, 32]
0.15013354 -0.09913704 0.093102306 0.09826966 0.02055914 -0.10570874 -0.04151701 -0.0396012
-0.04100256 -0.14838232 0.08405547 -0.10088333 0.0385154 -0.13446619 0.0018966924 0.1739749
-0.00018445568 0.1379964 -0.18866453 -0.10570185 -0.13602033 0.103792705 -0.15250951 -0.026773721
-0.14375184 -0.14225751 0.09506015 0.08793354 0.12819135 -0.0806952 0.099343985 -0.11305512
-0.024568072 -0.06065515 0.07392897 -0.143518 0.13090783 0.14298873 0.09925892 0.052860197
-0.005047338 -0.12428608 0.02608367 -0.17648889 -0.061690096 0.068643585 -0.01250145 -0.08748118
-0.02304988 0.08629218 -0.15296818 -0.037649482 0.16944826 -0.041765798 0.1597849 0.085722245
-0.10771187 0.014609974 0.07374267 0.11986387 0.10445218 0.052192423 0.03639847 0.17205606
-0.055806052 0.17168476 -0.058491502 0.1654809 -0.016595421 0.14557613 0.12302928 -0.16136765
0.08060218 -0.14617915 -0.11321796 0.037770677 0.19913523 0.14024876 -0.12951581 0.07228014
0.103977434 -0.13821176 -0.052727614 0.15077248 0.039625455 0.14869942 -0.16007076 -0.06584366
0.012030271 -0.10871653 -0.04954677 0.07431383 0.13544501 0.0036190655 0.16188508 0.17377876
-0.076693036 -0.07832058 0.0418703 0.16202469 -0.033000812 -0.14136118 -0.011255357 -0.026542062
-0.049982432 0.09839962 0.10845606 -0.1536445 0.16369522 -0.012067506 0.09245316 0.09054026
-0.15471937 0.034257844 0.17296697 -0.09962535 0.12560791 0.084520236 0.1555902 0.1175413
-0.055307306 -0.08978313 0.046852626 -0.12856576 0.06216209 0.026023697 -0.17213501 -0.05115114
0.16297966 -0.15882894 -0.002938689 -0.15762101 0.079359904 0.07314853 -0.064785585 0.052497018
-0.102782 -0.06918331 -0.16728301 -0.12063172 -0.06740697 0.0979671 -0.04700798 -0.09472118
0.050382912 -0.055296835 -0.01920714 -0.15218809 0.14431556 -0.046324212 -0.14709058 0.016892014
-0.050495505 0.04068941 -0.10890079 -0.082972795 0.1158819 0.12382931 0.0010867565 -0.13851626
0.14085293 -0.002731474 -0.09538885 -0.095140755 -0.042179447 0.114815876 -0.0093531655 -0.025606886
0.0016076494 0.103981815 -0.113828205 -0.11428609 -0.1006633 0.14885557 -0.025713265 -0.08359665
0.098757885 0.15838836 -0.15323089 0.08488004 -0.111356 -0.09113493 0.079099245 -0.09300918
0.008498553 0.11386298 -0.10217306 -0.1101404 0.13466029 -0.068434134 -0.04685012 0.032665554
0.09888508 -0.15303986 0.17355075 0.0068057254 -0.1681046 0.10027633 0.11369708 -0.14955989
0.079986565 -0.15344584 0.098937795 0.091134295 0.04492161 0.06685524 -0.07152944 -0.017537324
0.10064073 -0.07457433 -0.110290885 0.12864019 0.06306639 0.16062963 0.080886 0.12815683
0.14299478 -0.15699388 0.114558265 0.1333281 -0.02747277 0.043654524 -0.13094382 0.040639803
-0.14792024 -0.06310913 -0.12217406 0.08961971 -0.16646886 -0.15177636 -0.011432607 0.17277388
-0.075902045 -0.17033583 0.011558963 0.05994502 -0.01239111 0.14260162 -0.08805829 0.08533942
0.090611406 0.0013601631 0.018276496 0.15571237 0.06521666 0.0061034956 0.1400698 -0.09103211
0.079430036 -0.15700978 0.03845885 0.034863472 -0.030444164 -0.006792049 -0.0805389 0.05076727
00000000: 9bbc 193e 5c08 cbbd 6cac be3d 9a41 c93d
00000010: a46b a83c d37d d8bd be0d 2abd de34 22bd
00000020: 4df2 27bd 89f1 17be 4625 ac3d eb9b cebd
00000030: 53c2 1d3d 81b1 09be 709a f83a 7a26 323e
00000040: 726a 41b9 ee4e 0d3e 4631 41be 367a d8bd
00000050: ea48 0bbe 4591 d43d 742b 1cbe 9054 dbbc
00000060: af33 13be f4ab 11be e5ae c23d 8016 b43d
00000070: 9844 033e 8643 a5bd dc74 cb3d 7189 e7bd
00000080: fb42 c9bc 8971 78bd 1268 973d 62f6 12be
00000090: b40c 063e a36b 123e 4348 cb3d ef83 583d
000000a0: 2464 a5bb b389 febd 6cad d53c 81b9 34be
000000b0: c1ae 7cbd 0295 8c3d e2d2 4cbc 5529 b3bd
000000c0: 1ad3 bcbc f4b9 b03d b1a3 1cbe 5836 1abd
000000d0: d883 2d3e 9d12 2bbd a79e 233e 258f af3d
000000e0: 0a98 dcbd ac5e 6f3c 6606 973d 307b f53d
000000f0: 06eb d53d b9c7 553d 9016 153d 772f 303e
00000100: e394 64bd 21ce 2f3e c994 6fbd d373 293e
00000110: 1ff3 87bc e911 153e c6f6 fb3d 903d 25be
00000120: c112 a53d fdaf 15be d1de e7bd 6db5 1a3d
00000130: 1bea 4b3e 5f9d 0f3e cb9f 04be 9c07 943d
00000140: 1ff2 d43d 6287 0dbe e9f8 57bd 1a64 1a3e
00000150: 4d4e 223d a944 183e 97e9 23be 0ad9 86bd
00000160: 9d1a 453c c6a6 debd 8ef1 4abd d931 983d
00000170: 19b2 0a3e d82d 6d3b 34c5 253e 0ff3 313e
00000180: 3d11 9dbd 8a66 a0bd 3180 2b3d cde9 253e
00000190: dc2b 07bd fcc0 10be 6468 38bc bd6e d9bc
000001a0: 61ba 4cbd bd85 c93d 361e de3d fc54 1dbe
000001b0: b89f 273e cab6 45bc 1558 bd3d 2c6d b93d
000001c0: c16e 1ebe f451 0c3d 411e 313e 6008 ccbd
000001d0: 5c9f 003e f218 ad3d 0a53 1f3e 7eb9 f03d
000001e0: ea89 62bd 38e0 b7bd 8ae8 3f3d bea6 03be
000001f0: ad9d 7e3d a62f d53c 2944 30be dc83 51bd
00000200: 24e4 263e 0ea4 22be 0597 40bb 6767 21be
00000210: 7287 a23d e6ce 953d 4eae 84bd 1d07 573d
00000220: 5f7f d2bd fbaf 8dbd 3d4c 2bbe c30d f7bd
00000230: aa0c 8abd faa2 c83d 718b 40bd 2efd c1bd
00000240: 505e 4e3d ef7e 62bd 4b58 9dbc 32d7 1bbe
00000250: 75c7 133e 75be 3dbd ea9e 16be 1f61 8a3c
00000260: 60d4 4ebd f0a9 263d 6107 dfbd a4ed a9bd
00000270: 7d53 ed3d 399a fd3d 7f71 8e3a 35d7 0dbe
00000280: c03b 103e 8702 33bb 3b5b c3bd 28d9 c2bd
00000290: 5bc4 2cbd 9624 eb3d 053e 19bc 88c5 d1bc
000002a0: c3b7 d23a 6bf4 d43d c31e e9bd d30e eabd
000002b0: 8f28 cebd 986d 183e a0a4 d2bc b834 abbd
000002c0: 9341 ca3d 8f30 223e 8fe8 1cbe 96d5 ad3d
000002d0: 9d0e e4bd f3a4 babd c9fe a13d 997b bebd
000002e0: 843d 0b3c fe30 e93d 1c40 d1bd 4a91 e1bd
000002f0: 63e4 093e 3227 8cbd e9e5 3fbd 51cc 053d
00000300: 4384 ca3d 7bb6 1cbe 4ab7 313e 9002 df3b
00000310: 9d23 2cbe ad5d cd3d 04da e83d 3a26 19be
00000320: ffcf a33d e820 1dbe e69f ca3d 9ea4 ba3d
00000330: b9ff 373d 66eb 883d 077e 92bd 6faa 8fbc
00000340: ba1c ce3d 6dba 98bd 30e0 e1bd 41ba 033e
00000350: f428 813d 187c 243e 8fa7 a53d 8b3b 033e
00000360: 396d 123e 01c3 20be 869d ea3d 2987 083e
00000370: 930e e1bc 16cf 323d 2316 06be ec75 263d
00000380: 6778 17be 5c3f 81bd 6536 fabd 8a8a b73d
00000390: d076 2abe 436b 1bbe d44f 3bbc a3eb 303e
000003a0: 8872 9bbd 846c 2ebe ce61 3d3c e988 753d
000003b0: 1504 4bbc 2906 123e e857 b4bd 6fc6 ae3d
000003c0: 7992 b93d 8047 b23a 97b8 953c 1073 1f3e
000003d0: 5090 853d d5ff c73b 756e 0f3e 0b6f babd
000003e0: 37ac a23d 2cc7 20be 0787 1d3d 00cd 0e3d
000003f0: 0a66 f9bc d68f debb 94f1 a4bd 57f1 4f3d

encoder.2.bias f4 [16]
-0.051241875 0.0546131 0.015975252 0.09673833 -0.025470626 -0.024021575 -0.1043567 -0.10786822
-0.0019115787 -0.004694017 -0.057982642 0.053599443 0.10609853 0.10930197 -0.15302989 0.020184632
00000000: 00e3 51bd fcb1 5f3d 88de 823c bf1e c63d
00000010: c6a7 d0bc e5c8 c4bc f7b8 d5bd 03ea dcbd
00000020: f08d faba 45d0 99bb 357f 6dbd 178b 5b3d
00000030: 304a d93d b6d9 df3d deb3 1cbe 3e5a a53c

encoder.4.weight f4 [8, 16]
-0.09065219 -0.21176109 0.10432197 -0.19421065 -0.14860585 0.1415304 -0.19584572 0.0054795146
0.094708905 0.06767924 0.20359376 0.12090548 0.18601273 0.19662622 -0.030608445 -0.052800868
-0.1777747 -0.014614749 0.064962365 0.00091412663 0.17840427 0.044573367 0.18867323 0.13323629
0.14944464 -0.14893036 -0.06413832 0.123617396 0.13355698 -0.19736372 -0.10124254 0.08296798
-0.1663969 0.112641454 -0.08944933 -0.22628596 -0.23181713 0.05270818 -0.2199291 0.14775169
0.13486925 -0.12899701 0.0043869913 0.09062685 -0.0058964454 -0.12322017 0.07421312 0.15962227
0.101654366 -0.12587991 0.009142116 0.24742758 -0.011098951 -0.16275525 -0.01546315 0.054669976
-0.025202485 -0.22945866 -0.0263111 -0.097319916 -0.031226313 0.033062246 -0.13960311 0.15308511
0.21268205 -0.03515293 -0.16945007 0.021201462 0.0045171976 0.06384802 0.2064656 0.0067011416
-0.14818525 0.14786762 0.18608531 0.0035014316 -0.06675236 0.19462705 -0.15416425 0.20442186
-0.12917395 0.002041853 -0.027731674 -0.078353584 0.12697294 -0.007082641 -0.16808951 -0.21340287
0.16648859 0.15776864 -0.22588927 -0.18797109 -0.2083339 0.13487653 -0.122908294 0.21673751
0.042012475 -0.11888211 -0.22843689 0.18944362 0.10258368 -0.22228643 0.13617358 -0.029792994
-0.2055882 0.15932466 0.19797641 0.16637862 -0.2623768 0.1506515 0.22649539 0.015030801
0.07473612 0.1483895 0.017741293 -0.0071582794 0.23337016 0.102624536 -0.24931206 0.07831454
0.047967147 -0.017223569 0.11763993 0.18011458 -0.18188381 -0.03715693 -0.086390525 0.04061798
00000000: dba7 b9bd e6d7 58be c2a6 d53d 28df 46be
00000010: 222c 18be 58ed 103e c88b 48be 808d b33b
00000020: bef6 c13d 6a9b 8a3d e27a 503e 4b9d f73d
00000030: 1f7a 3e3e 6258 493e 90be fabc b945 58bd
00000040: 920a 36be b372 6fbc fd0a 853d 00a2 6f3a
00000050: 9caf 363e 9092 363d 8e33 413e 186f 083e
00000060: 0408 193e 3381 18be f45a 83bd 1e2b fd3d
00000070: 29c3 083e b719 4abe 4058 cfbd 1eeb a93d
00000080: f363 2abe 90b0 e63d 3631 b7bd 82b7 67be
00000090: 7861 6dbe 88e4 573d 1835 61be 384c 173e
000000a0: 2a1b 0a3e cb17 04be c0c0 8f3b 929a b93d
000000b0: f836 c1bb db5a fcbd 0cfd 973d 0574 233e
000000c0: 2a30 d03d aae6 00be d0c8 153c a85d 7d3e
000000d0: 60d8 35bc 50a9 26be 2759 7dbc a0ed 5f3d
000000e0: 7175 cebc 36f7 6abe 608a d7bc aa4f c7bd
000000f0: 53ce ffbc 476c 073d 1ef4 0ebe 58c2 1c3e
00000100: 53c9 593e 85fc 0fbd 5284 2dbe b0ae ad3c
00000110: 0005 943b c0c2 823d b86b 533e 4095 db3b
00000120: e0bd 17be 9c6a 173e 268d 3e3e 4678 653b
00000130: 76b5 88bd 504c 473e 3cdd 1dbe f753 513e
00000140: 2d46 04be 9cd0 053b 892d e3bc d877 a0bd
00000150: 3205 023e 8015 e8bb a81f 2cbe 4886 5abe
00000160: fc7b 2a3e 1a8e 213e 844f 67be 7e7b 40be
00000170: 7b55 55be 131d 0a3e 58b7 fbbd 70f0 5d3e
00000180: 4615 2c3d 7778 f3bd 5ceb 69be 82fd 413e
00000190: 6417 d23d 0e9f 63be 1671 0b3e 7010 f4bc
000001a0: b785 52be 0126 233e 54ba 4a3e 285f 2a3e
000001b0: 4056 86be 6344 1a3e 68ee 673e c043 763c
000001c0: 400f 993d 6bf3 173e 3056 913c 0090 eabb
000001d0: 96f8 6e3e d02c d23d a94b 7fbe 6063 a03d
000001e0: 3379 443d 7118 8dbc 34ed f03d f56f 383e
000001f0: c03f 3abe dd31 18bd 84ed b0bd 0a5f 263d

encoder.4.bias f4 [8]
-0.15180612 0.01476716 -0.122550316 -0.037171155 -0.015018799 -0.09768457 -0.27574465 -0.268909
00000000: 1073 1bbe f5f1 713c a9fb fabd c840 18bd
00000010: 6911 76bc d90e c8bd 672e 8dbe 71ae 89be

decoder.0.weight f4 [16, 8]
0.22725436 0.27735326 0.098589085 0.17731422 -0.09961582 0.09869644 0.045070704 0.18312724
-0.12335217 0.15507488 0.19532934 0.011348222 -0.097182885 -0.028484473 0.08364917 -0.17669272
-0.29455855 -0.019036898 0.20543516 -0.0021770096 0.0056113 -0.29011798 -0.057245307 -0.0066358307
0.33015454 0.027442066 0.33872765 0.17631494 -0.22199073 -0.116049536 -0.059012584 -0.20814237
-0.24297796 0.17691894 0.030046066 -0.31050894 0.27292895 -0.10716641 0.33603248 -0.04312769
-0.27555504 0.3139906 -0.16773486 0.23116994 -0.22783737 -0.3392119 -0.030614428 -0.029357815
-0.039642163 -0.23743872 -0.10152042 0.255528 -0.1372653 -0.16202842 -0.3881482 0.10992761
-0.25577414 0.10864922 -0.16272032 -0.38305002 -0.13253047 0.29797858 -0.06517397 -0.28630257
0.05218239 -0.3424736 0.30821574 -0.29584795 -0.15806814 -0.17916414 0.34296677 0.16466989
-0.01463975 -0.33848652 0.30540183 -0.05987634 0.21413364 -0.13948579 -0.024297953 0.1048233
-0.23979855 -0.2673267 0.09307941 -0.19083484 -0.20533775 -0.3055845 -0.24015047 -0.1584625
-0.2802887 -0.24208732 0.30753103 -0.15043722 0.03642592 -0.09102516 0.26704383 0.07241618
-0.139998 0.16792788 0.017584508 0.019818291 0.09690011 0.03691103 -0.099245 -0.15860264
0.24878 0.27819583 -0.16289753 -0.335934 0.110809155 0.35031652 -0.044918288 0.27785754
-0.3096265 0.19256724 0.30385238 0.33480123 0.0010690409 0.38960832 -0.14020942 -0.17224014
-0.0046280003 -0.21424812 0.2721916 -0.03641169 -0.08375569 0.11347343 0.19447212 0.1375497
00000000: 5eb5 683e 3f01 8e3e 13e9 c93d dc91 353e
00000010: 6103 ccbd 5c21 ca3d 0f9c 383d b585 3b3e
00000020: 10a0 fcbd f3cb 1e3e 6a04 483e e5ed 393c
00000030: d207 c7bd 4558 e9bc 4250 ab3d f0ee 34be
00000040: 61d0 96be 45f3 9bbc 985d 523e 29ac 0ebb
00000050: ffde b73b 588a 94be 0e7a 6abd 6271 d9bb
00000060: 040a a93e 2fce e03c b66d ad3e e78b 343e
00000070: 8a51 63be 61ab edbd 2eb7 71bd 4623 55be
00000080: 37cf 78be 3d2a 353e 2b23 f63c 07fb 9ebe
00000090: 58bd 8b3e 107a dbbd 730c ac3e a9a6 30bd
000000a0: 8d15 8dbe 60c3 a03e b0c2 2bbe d0b7 6c3e
000000b0: 334e 69be 2fad adbe 1ccb fabc cd7f f0bc
000000c0: d25f 22bd 2323 73be f0e9 cfbd 91d4 823e
000000d0: 468f 0cbe c7ea 25be 5cbb c6be ba21 e13d
000000e0: d4f4 82be 7b83 de3d 28a0 26be 221f c4be
000000f0: 11b6 07be a690 983e ee79 85bd 4096 92be
00000100: 34bd 553d b358 afbe 74ce 9d3e 6279 97be
00000110: 9ddc 21be ce76 37be 5799 af3e 399f 283e
00000120: 90db 6fbc 1b4e adbe a15d 9c3e e540 75bd
00000130: d945 5b3e 5dd5 0ebe 800c c7bc 99ad d63d
00000140: c08d 75be 0cdf 88be 6ba0 be3d 356a 43be
00000150: 0f44 52be 9275 9cbe 01ea 75be fe43 22be
00000160: 0082 8fbe bde5 77be b574 9d3e 370c 1abe
00000170: 5833 153d 666b babd f8b9 883e ef4e 943d
00000180: a35b 0fbe 49f5 2b3e 630d 903c f859 a23c
00000190: 9173 c63d 0530 173d f640 cbbd bb68 22be
000001a0: 2fc0 7e3e af6f 8e3e 9cce 26be 8bff abbe
000001b0: e9ef e23d b05c b33e 3dfc 37bd 5843 8e3e
000001c0: 5d87 9ebe 5930 453e 8a92 9b3e 116b ab3e
000001d0: 0f1f 8c3a be7a c73e 0f93 0fbe b85f 30be
000001e0: 7ba6 97bb dc63 5bbe b35c 8b3e 6d24 15bd
000001f0: 1a88 abbd c264 e83d b323 473e d4d9 0c3e

decoder.0.bias f4 [16]
0.36374706 0.12765951 0.18361849 -0.14186388 -0.05044632 0.21916005 0.092634015 0.27792645
-0.13613841 -0.14476709 0.10049754 0.31345573 -0.19153956 -0.041312788 -0.03776387 0.33024362
00000000: 0e3d ba3e 2db9 023e 7c06 3c3e c444 11be
00000010: cda0 4ebd 7e6b 603e e7b6 bd3d 604c 8e3e
00000020: de67 0bbe d33d 14be a7d1 cd3d 457d a03e
00000030: f222 44be 9937 29bd 4aae 1abd b115 a93e

decoder.2.weight f4 [32, 16]
-0.2405996 0.24753287 -0.2495754 -0.19790003 -0.24883172 -0.0074344873 0.14089411 -0.08378026
-0.12486687 0.18805107 0.10932115 -0.08061507 0.044228464 0.19185233 -0.01507318 -0.20434472
0.12539178 0.14631769 0.22316337 0.11077914 0.07160357 -0.20507395 0.16168079 0.010568529
0.009172857 0.1504798 -0.11169016 -0.14695635 0.12423724 -0.02338779 -0.19724292 -0.0931609
-0.1305075 -0.012135371 -0.04454357 0.2439734 0.1510087 -0.17656858 -0.24020486 0.06179787
-0.21580252 -0.17827243 0.015339251 0.13106126 0.24065831 0.17066474 -0.23224543 0.027451769
0.2709635 0.016523778 -0.21372591 0.23244482 0.14572567 0.09853882 0.12058834 -0.17320694
0.09661755 -0.08625311 0.28983912 0.20090216 0.18391454 -0.13595068 -0.12672552 -0.01017308
0.035318255 0.044739753 0.049078703 -0.004063785 -0.06771648 0.021057367 -0.0896287 0.22190088
-0.083017915 -0.19675592 0.22640425 -0.05342245 -0.22903618 -0.14198536 0.05569923 -0.1801813
-0.115028776 0.2149793 -0.05005916 -0.1551019 -0.050510854 -0.17064473 -0.22373948 -0.26765692
0.17332554 0.107866794 0.081601344 0.18966931 -0.10750249 -0.086749576 -0.09505076 -0.099603616
0.16796146 -0.19823007 0.21478663 0.0008317232 -0.13315663 -0.01979958 0.056909043 0.0039449604
0.093473375 0.15117821 -0.13896999 -0.22146694 -0.15612456 -0.14043203 0.123730004 -0.046295896
0.1744279 0.07708494 0.06992114 0.017237931 0.1962085 0.0039442796 0.00565669 -0.24488258
-0.24919948 0.10511312 0.11745232 -0.25399017 0.19380543 0.18179055 0.03598658 -0.023269251
0.06404117 -0.039651006 0.02270338 0.110542 -0.23335907 -0.2038542 -0.002219379 0.02787453
-0.039178073 0.042666078 0.13677761 0.08883843 0.2197198 -0.03210044 -0.21266896 -0.20437777
0.17389849 0.011650354 -0.23877636 -0.05568117 -0.009982854 -0.047790855 0.14997971 -0.23662958
0.013751388 0.1311236 0.19412145 -0.14707538 0.044238508 -0.06951079 0.10618028 0.09288147
0.20658189 0.2448673 -0.17708153 0.22260404 -0.009773403 0.023285389 0.114613265 0.027424842
0.122710645 0.19274917 -0.029035956 0.009955317 0.06847948 0.039646596 -0.0665988 0.18108782
-0.24509326 -0.2148146 0.1357848 -0.23808745 0.010815412 -0.24452353 -0.23263946 -0.13291922
0.020583987 0.07378489 -0.0851306 0.05035335 0.13397333 0.13062331 0.07536432 -0.23502696
-0.14460406 -0.12516397 0.12850884 -0.045439094 -0.16551214 -0.08124173 -0.11277929 -0.24510342
0.06546268 -0.06243515 0.12236464 -0.05816269 -0.16835877 -0.19425398 -0.1006811 0.1876874
0.0045114458 0.20434442 0.17691389 0.08465728 0.0054922104 0.16848788 -0.17395696 0.06437755
-0.04353407 -0.12070474 -0.20453626 -0.19710875 -0.15054828 0.21670067 -0.03920573 -0.13739243
0.18281654 -0.033292174 0.00094612234 -0.042478085 0.12063429 0.23916188 -0.0059021735 -0.16811033
0.018851906 0.1284591 0.21810341 0.013353746 0.040506124 -0.092846125 0.19771455 -0.035095397
-0.05861944 -0.040198147 0.032647282 0.11414835 -0.015257001 -0.15187079 0.0070219934 0.09781757
0.084686756 0.23628885 -0.23411906 -0.18528101 -0.11211115 -0.023042172 0.16790947 -0.069025874
00000000: be5f 76be 4279 7d3e b290 7fbe 4ea6 4abe
00000010: becd 7ebe 009d f3bb 8c46 103e fc94 abbd
00000020: 34ba ffbd 7690 403e c4e3 df3d 8419 a5bd
00000030: e828 353d f074 443e 80f5 76bc be3f 51be
00000040: b466 003e 4ed4 153e f084 643e 2ce0 e23d
00000050: e4a4 923d e8fe 51be a68f 253e a027 2d3c
00000060: c049 163c 6017 1a3e d0bd e4bd ba7b 16be
00000070: 1870 fe3d c097 bfbc 0cfa 49be 24cb bebd
00000080: c2a3 05be 6fd3 46bc 5273 36bd 2ad4 793e
00000090: 06a2 1a3e 65ce 34be 43f8 75be c31f 7d3d
000000a0: 56fb 5cbe 0c8d 36be 7b51 7b3c ec34 063e
000000b0: 226f 763e bdc2 2e3e bfd1 6dbe 88e2 e03c
000000c0: babb 8a3e e05c 873c f7da 5abe 0406 6e3e
000000d0: 1c39 153e b9ce c93d 05f7 f63d 295d 31be
000000e0: 6cdf c53d 78a5 b0bd cb65 943e 4cb9 4d3e
000000f0: 1854 3c3e a836 0bbe 56c4 01be fdac 26bc
00000100: e0a9 103d 0841 373d c006 493d 8029 85bb
00000110: f0ae 8abd 8080 ac3c 408f b7bd fc39 633e
00000120: 4c05 aabd 627a 49be 84d6 673e 80d1 5abd
00000130: 7688 6abe 9c64 11be e024 643d 7281 38be
00000140: 3594 ebbd 8923 5c3e d50a 4dbd 08d3 1ebe
00000150: 78e4 4ebd 7ebd 2ebe f61b 65be 540a 89be
00000160: 407c 313e 44e9 dc3d 9b1e a73d ac38 423e
00000170: 442a dcbd c3a9 b1bd f9a9 c2bd fbfc cbbd
00000180: 17fe 2b3e d3fc 4abe 07f1 5b3e 0008 5a3a
00000190: 365a 08be bb32 a2bc 7519 693d ba44 813b
000001a0: f86e bf3d 76ce 1a3e 264e 0ebe 3bc8 62be
000001b0: 1edf 1fbe 6acd 0fbe 2866 fd3d c4a0 3dbd
000001c0: 3a9d 323e b6de 9d3d d132 8f3d 9036 8d3c
000001d0: e2ea 483e 043f 813b c15b b93b 80c2 7abe
000001e0: 262e 7fbe 8c45 d73d d88a f03d 000b 82be
000001f0: ee74 463e 4d27 3a3e aa66 133d 289f bebc
00000200: 0428 833d 1869 22bd 70fc b93c d863 e23d
00000210: aef5 6ebe 28bf 50be 0073 11bb 2059 e43c
00000220: 3079 20bd a0c2 2e3d 6e0f 0c3e ecf0 b53d
00000230: 3afe 603e c07b 03bd e4c5 59be 6848 51be
00000240: 7212 323e 20e1 3e3c ca81 74be f011 64bd
00000250: 208f 23bc 58c0 43bd 4894 193e 064f 72be
00000260: 804d 613c 4445 063e c6c7 463e ee9a 16be
00000270: 7033 353d ac5b 8ebd 0c75 d93d a438 be3d
00000280: 348a 533e 7ebe 7a3e dc54 35be 50f2 633e
00000290: a020 20bc 00c1 be3c 5cba ea3d 10aa e03c
000002a0: b84f fb3d 0a60 453e d0dc edbc a01b 233c
000002b0: f83e 8c3d 7864 223d f464 88bd 166f 393e
000002c0: baf9 7abe 5cf8 5bbe 2c0b 0b3e 32cd 73be
000002d0: 2033 313c 6064 7abe 0a39 6ebe fa1b 08be
000002e0: c09f a83c 881c 973d f458 aebd 503f 4e3d
000002f0: 4e30 093e 1ec2 053e 9c58 9a3d e8aa 70be
00000300: 1613 14be fc2a 00be d297 033e 581e 3abd
00000310: 047c 29be 1062 a6bd d4f8 e6bd 64fc 7abe
00000320: 4c11 863d 00bc 7fbd 509a fa3d 003c 6ebd
00000330: 3e66 2cbe 84ea 46be e431 cebd 2031 403e
00000340: c0d4 933b aa3f 513e ea28 353e cc60 ad3d
00000350: 00f8 b33b 1688 2c3e c621 32be 60d8 833d
00000360: c850 32bd 0c34 f7bd f471 51be e0d6 49be
00000370: 5429 1abe c8e6 5d3e 3096 20bd 9ab0 0cbe
00000380: 4234 3b3e 605d 08bd 3205 783a 80fd 2dbd
00000390: 1c0f f73d dae6 743e 0567 c1bb 1d25 2cbe
000003a0: 506f 9a3c c88a 033e 8056 5f3e acc9 5a3c
000003b0: c0e9 253d 1c26 bebd af75 4a3e 31c0 0fbd
000003c0: f01a 70bd d0a6 24bd 28b9 053d 9cc6 e93d
000003d0: 80f8 79bc 0484 1bbe c018 e63b 9454 c83d
000003e0: 4070 ad3d b4f5 713e e8bc 6fbe 4eba 3dbe
000003f0: 889a e5bd f0c2 bcbc 76f0 2b3e 705d 8dbd

decoder.2.bias f4 [32]
-0.060063064 -0.14685091 0.08408717 0.05147429 -0.24213687 0.15384498 -0.026553007 0.026799107
-0.092741996 -0.12394872 -0.19325745 -0.14664045 -0.19076726 -0.18123972 -0.13243625 -0.17889205
0.11784763 -0.09673864 -0.16604912 0.16934843 -0.23712921 0.15078294 0.20838565 -0.035943717
-0.06902046 -0.14017022 -0.018664189 0.073963486 -0.085715294 0.10099027 0.17658806 -0.21767682
00000000: b004 76bd 1660 16be e535 ac3d b5d6 523d
00000010: baf2 77be 8a89 1d3e b185 d9bc cd89 db3c
00000020: 84ef bdbd d4d8 fdbd 48e5 45be ea28 16be
00000030: 7e58 43be e896 39be 5e9d 07be 7a2f 37be
00000040: 195a f13d e81e c6bd c808 2abe ad69 2d3e
00000050: 00d2 72be d866 1a3e 0c63 553e b839 13bd
00000060: 995a 8dbd c888 0fbe a4e5 98bc 2b7a 973d
00000070: 808b afbd fdd3 ce3d 80d3 343e ace6 5ebe

decoder.4.weight f4 [2, 32]
-0.08608856 -0.13367139 0.043632697 -0.09400577 0.07112991 0.099197835 0.06169071 -0.0074918284
0.11597613 -0.035359308 -0.003749173 0.06128925 0.14666487 -0.05641581 0.08501544 0.13114516
-0.10952799 0.09286554 0.16878563 -0.17735106 0.035653137 -0.0073540257 0.106327325 0.05808434
-0.1803424 0.11920239 -0.050205465 0.12810661 -0.13996032 -0.033060726 0.064326234 0.1628662
-0.17305388 -0.0015796849 -0.003241445 0.08909042 -0.0955846 -0.018124098 0.006409824 -0.10897581
-0.17179902 -0.13790916 0.008379236 -0.040745 -0.17519486 -0.019750793 0.12116631 -0.16681044
0.10901676 -0.109737515 0.17525974 0.018391285 0.12407248 -0.09738301 0.055718068 0.13676791
-0.11662567 -0.13329318 0.13630052 -0.13308777 0.15892027 -0.0022379973 0.15902297 0.03244477
00000000: 334f b0bd 27e1 08be 33b8 323d 1986 c0bd
00000010: 8fac 913d 3c28 cb3d 66af 7c3d 037e f5bb
00000020: e584 ed3d ecd4 10bd afb4 75bb 700a 7b3d
00000030: 512f 163e 4414 67bd 931c ae3d eb4a 063e
00000040: 3650 e0bd 4a30 be3d 24d6 2c3e 849b 35be
00000050: 0609 123d 0afa f0bb 24c2 d93d d8e9 6d3d
00000060: aeab 38be 6220 f43d 3fa4 4dbd 612e 033e
00000070: c251 0fbe af6a 07bd 79bd 833d 66c6 263e
00000080: 0935 31be 6e0d cfba 6c6e 54bb 0a75 b63d
00000090: dcc1 c3bd fd78 94bc 8009 d23b b62e dfbd
000000a0: 15ec 2fbe 0f38 0dbe 1049 093c 3be4 26bd
000000b0: 4866 33be 6acc a1bc 0b26 f83d 5bd0 2abe
000000c0: 2e44 df3d 10be e0bd 4a77 333e 52a9 963c
000000d0: b619 fe3d be70 c7bd a138 643d e30c 0c3e
000000e0: 70d9 eebd 027e 08be 5d92 0b3e 2948 08be
000000f0: ffbb 223e 5dab 12bb ebd6 223e cfe4 043d

decoder.4.bias f4 [2]
0.13938703 -0.020388478
00000000: 79bb 0e3e bd05 a7bc
